=========================================Start of Log==============================================
Trained model DeepDenseNet-0.json
Sunday March 31,2019 08:42PM
Dataset dir: C:\Users\Fabi\ownCloud\workspace\uni\7\neuroling\neuroling_project\data\v1
_________________________________________________________________
Layer (type)                 Output Shape              Param #   
=================================================================
input_1 (InputLayer)         (None, 64, 5)             0         
_________________________________________________________________
flatten_1 (Flatten)          (None, 320)               0         
_________________________________________________________________
3fc0 (Dense)                 (None, 128)               41088     
_________________________________________________________________
3fc1 (Dense)                 (None, 64)                8256      
_________________________________________________________________
3fc2 (Dense)                 (None, 32)                2080      
_________________________________________________________________
3fc3 (Dense)                 (None, 16)                528       
_________________________________________________________________
3fc4 (Dense)                 (None, 8)                 136       
_________________________________________________________________
3fc5 (Dense)                 (None, 4)                 36        
_________________________________________________________________
3fc6 (Dense)                 (None, 2)                 10        
_________________________________________________________________
3fc7 (Dense)                 (None, 1)                 3         
=================================================================
Total params: 52,137
Trainable params: 52,137
Non-trainable params: 0
_________________________________________________________________
___________Parameters:______________
Batch size    : 128
Epochs       : 10000
Learning rate : 0.02
___________Metrics___________________
Loss          : 0.3921387429871311
MSE      : 0.508670526605121
…
